Jupyter code/Best_model.pth (torch, 122722 bytes, 14 tensors)

conv1.weight f4 [16, 1, 7, 7]
0	0x3c34c7f4	0.011034001
1	0xbd17ed57	-0.03709158
2	0x3ca9e5d5	0.020739475
3	0xbd81593c	-0.06315848
4	0xbdc31c5a	-0.09526892
5	0xbde87489	-0.11350352
6	0xbd60b322	-0.054858334
7	0xbdc3e5dc	-0.095653266
8	0x3e2a715f	0.1664481
9	0x3cedbe22	0.029021326
10	0x3e2b5154	0.16730243
11	0x3d7859c5	0.060632486
12	0xbdfb0dd2	-0.122584954
13	0x3d927a12	0.07152189
14	0xbcffc711	-0.031222852
15	0xbd193cf6	-0.037411653
16	0xbe04e8b5	-0.12979396
17	0xbe2d977b	-0.16952316
18	0x3da8a5c4	0.08234742
19	0xbbab1aec	-0.005221715
20	0x3d98a45a	0.074532226
21	0xbe04ebb0	-0.12980533
22	0x3e18e8d6	0.1493257
23	0xbddde549	-0.10834748
24	0xbc2dcb69	-0.010607579
25	0x3d3c4085	0.045959968
26	0x3da7d3b8	0.08194679
27	0x3e01eda2	0.12688306
28	0x3ddffd7e	0.10937022
29	0xbdc14e53	-0.09438767
30	0x3d3ed7d2	0.04659254
31	0xbd85024b	-0.06494578
32	0xbc3eaeb4	-0.011638332
33	0xbe08bb8a	-0.1335279
34	0x3e0bcbdb	0.13651983
35	0xbdf306d0	-0.11866534
36	0x3da5d1a1	0.08096624
37	0x3d84f2ca	0.06491621
38	0x3d0d90e1	0.034561995
39	0xbdeab928	-0.11461097
40	0x3dea9035	0.114532866
41	0x3c824459	0.015901731
42	0x3d5a2487	0.05325749
43	0xbe2611f4	-0.16217786
44	0x3dc9e87f	0.09858798
45	0xbcaecf77	-0.021339161
46	0xbd8e31bf	-0.06943082
47	0x3e2c25ab	0.16811244
48	0x3bbc4879	0.005745944
49	0xbdc21c7c	-0.09478089
50	0xbdbe9aa5	-0.0930684
51	0xbc10f6b7	-0.008847884
52	0x3d8dd8c2	0.06926109
53	0xbbe4ba73	-0.0069802343
54	0xbdb54b3f	-0.08852243
55	0xbd583d88	-0.052793056
56	0xbdeecb6f	-0.11659896
57	0x3d6ac64f	0.057318028
58	0x3e065473	0.13118152
59	0xbe102747	-0.14077483
60	0x3d2e37bf	0.042533632
61	0x3da330e5	0.0796831
62	0x3d243371	0.04008812
63	0xbd8f1362	-0.06986119
64	0x3ddfd5f9	0.10929484
65	0x3e052fa4	0.13006455
66	0x3d6c47bb	0.057685595
67	0xbcfd27d1	-0.030902775
68	0xbd27a08b	-0.04092459
69	0x3d126f99	0.03575096
70	0xbd11fd39	-0.035641883
71	0xbd040dc8	-0.032239705
72	0x3e045a9c	0.1292519
73	0x3e1cbf7b	0.15307419
74	0xbccecf34	-0.025245287
75	0xbd5aa5c4	-0.053380743
76	0xbd48cf24	-0.04902567
77	0x3c8d4efc	0.017249577
78	0x3d560936	0.052254878
79	0x3d0aa318	0.033846945
80	0xbe26c26f	-0.16285108
81	0xbd818c85	-0.0632563
82	0x3df47bb4	0.11937657
83	0x3c9673fd	0.018365854
84	0x3d96b79e	0.07359241
85	0xbdce6867	-0.10078507
86	0xbdf549ad	-0.11976943
87	0xbe032157	-0.12805687
88	0xbc8814df	-0.016611515
89	0x3d210b02	0.03931714
90	0x3dab102e	0.083526954
91	0x3df15203	0.117832206
92	0xbe052fbe	-0.13006493
93	0xbde9557b	-0.11393257
94	0xbd22c59a	-0.03973923
95	0x3e1de03b	0.15417568
96	0x3c9fa9a5	0.019490073
97	0xbd000d2f	-0.031262573
98	0x3d804572	0.06263246
99	0xbd87d41c	-0.066322535
100	0xbde37796	-0.111067936
101	0x3e0192c9	0.1265365
102	0xbd1622dc	-0.03665434
103	0xbc617c83	-0.013762596
104	0xbe1156d7	-0.14193283
105	0x3e096cda	0.1342043
106	0x3e13f2e5	0.14448126
107	0x3d840473	0.06446161
108	0xbdab989d	-0.08378718
109	0xbe0c12b4	-0.1367901
110	0xbe032bb1	-0.12809636
111	0x3e1b4ea4	0.15166718
112	0x3da400b4	0.080079466
113	0x3e246cc0	0.1605711
114	0x3dbabf0c	0.091184705
115	0x3d18d540	0.037312746
116	0x3d2f7755	0.042838413
117	0xbdb80cf5	-0.08986846
118	0xbd9750db	-0.07388469
119	0xbe226c60	-0.15861654
120	0x3d50c7fb	0.050971966
121	0xbd6128b6	-0.054970466
122	0xba7e867f	-0.00097093725
123	0xbd46e3ff	-0.048557278
124	0xbbfe33d3	-0.007757643
125	0xbdd16167	-0.10223656
126	0xbdcaf894	-0.09910694
127	0x3c8a44e7	0.016878558
128	0xbd439151	-0.047746006
129	0x3dd8ede7	0.10592251
130	0xbd2c0ef5	-0.04200645
131	0xbdeea323	-0.116522096
132	0x3b0992f9	0.0020992144
133	0xbd8f564b	-0.06998881
134	0xbd9783cd	-0.07398186
135	0xbe40f157	-0.18842064
136	0x3da93897	0.08262747
137	0xbd94ed89	-0.07271869
138	0x3d9a1d7e	0.075251564
139	0x3dbf2d36	0.09334795
140	0x3e1dd97f	0.15415
141	0xbdda01e1	-0.106448896
142	0x3dba22c0	0.09088659
143	0xbd1599c3	-0.03652359
144	0x3de95fa4	0.11395195
145	0x3e3a792c	0.18210286
146	0xbc8613a4	-0.016366787
147	0x3cf8e81e	0.03038412
148	0xbcfa3523	-0.030542916
149	0xbe152ff9	-0.14569081
150	0x3deeb4ff	0.11655616
151	0xbe1d05ab	-0.15334193
152	0x3df9f08a	0.12204082
153	0x3e193cae	0.14964554
154	0x3e3f9dcd	0.1871254
155	0xbd02cbd2	-0.03193266
156	0xbdeac555	-0.11463419
157	0x3d986e97	0.07442968
158	0x3dd345d4	0.10316053
159	0xbe448734	-0.19192201
160	0xbc0985b1	-0.008393691
161	0xbd9af82b	-0.075668655
162	0x3bf3a4e2	0.007435427
163	0xbdaf0629	-0.08546097
164	0xbd6090d7	-0.05482563
165	0x3bbd63e8	0.005779732
166	0xbe06176b	-0.13094871
167	0x3e0e9eb1	0.13927723
168	0x3e1ab557	0.15108238
169	0x3b3ca108	0.0028782506
170	0x3d3ef098	0.046616167
171	0xbd32114b	-0.043473523
172	0xbdf0bf43	-0.1175523
173	0xbdd873c9	-0.10568959
174	0x3d320472	0.04346127
175	0xbdd34fc5	-0.10317949
176	0xbdb35668	-0.08756715
177	0xbd4d5780	-0.050132275
178	0xbcb7ee49	-0.02245249
179	0xbc628376	-0.013825288
180	0x3c8a83e7	0.016908599
181	0xbd3b91a5	-0.045793194
182	0xbd8148d7	-0.06312721
183	0xbd73a211	-0.05948073
184	0xbde39ec7	-0.11114269
185	0x3e07cc78	0.13261592
186	0xbd8c96b9	-0.068646856
187	0x3d74a1ae	0.059724502
188	0xbdafd68d	-0.08585844
189	0xbcf032e3	-0.02932114
190	0x3e2aa8d6	0.16665968
191	0x3da2136c	0.07913861
192	0xbd968d9b	-0.07351228
193	0x3dd845f2	0.10560216
194	0x3e1f8a7b	0.1558017
195	0x3ca4c24e	0.020112183
196	0x3e2a2b68	0.1661812
197	0x3e3959f8	0.18100727
198	0xbb431ff9	-0.0029773696
199	0x3d13daaf	0.036097225
200	0xbdecb572	-0.115580454
201	0xbbee33dd	-0.007269366
202	0x3e2db41c	0.16963238
203	0x3dd62a93	0.10457339
204	0xbdb70493	-0.08936419
205	0xbe0f86bf	-0.14016245
206	0xbda03926	-0.078234
207	0xbda500b6	-0.08056776
208	0xbde255d0	-0.11051524
209	0xbd270816	-0.040779196
210	0x3deb3a70	0.114857554
211	0x3cd39e6f	0.025832383
212	0xbde4e017	-0.11175554
213	0xbdabc00f	-0.08386242
214	0x3e031bd8	0.1280359
215	0xbda65042	-0.08120777
216	0xbb1788fa	-0.0023122416
217	0x3dd15ca2	0.102227464
218	0xbd3616e8	-0.04445544
219	0x3b315761	0.0027060139
220	0x3cb6ba29	0.022305565
221	0xbc8874e7	-0.016657306
222	0xbdbfd9f8	-0.09367746
223	0xbe0290b3	-0.12750511
224	0xbe0e7051	-0.13910033
225	0xbd136b42	-0.03599096
226	0x3e397329	0.18110336
227	0xbd914291	-0.07092775
228	0xbd7855aa	-0.06062857
229	0x3d985858	0.07438725
230	0x3d59821b	0.053102594
231	0x3d54aa18	0.051920027
232	0x3e1acb60	0.15116644
233	0x3e010f17	0.12603413
234	0xbdf9e903	-0.122026466
235	0x3bfc7b53	0.007705131
236	0x3d8c3a17	0.06847017
237	0xbd203046	-0.039108537
238	0xbd864a2d	-0.06557117
239	0x3e37ee80	0.17962074
240	0xbd67fec3	-0.056639444
241	0xbd9f0633	-0.07764854
242	0xbe0505c7	-0.12990485
243	0x3c1073e1	0.00881669
244	0x3d805936	0.06267016
245	0x3d894f55	0.067045845
246	0x3d7e4494	0.06207712
247	0xbda6b71b	-0.08140393
248	0xbe0ec081	-0.13940622
249	0x3b407d94	0.0029371725
250	0x3e307ac6	0.17234334
251	0x3d1bd334	0.038043216
252	0xbd3547ea	-0.044258036
253	0x3cedc93c	0.02902662
254	0xbdc22a33	-0.09480705
255	0xbd4ec3e7	-0.050479796

conv1.bias f4 [16]
0	0x3d973263	0.073826574
1	0x3dcc85f6	0.099864885
2	0xbda10a3f	-0.078632824
3	0x3d40e03d	0.04708885
4	0xbc55e7bc	-0.013055738
5	0xbd143693	-0.03618486
6	0xbd6588b3	-0.05603857
7	0x3dcbbfec	0.099487156
8	0x3dfe1edf	0.12408232
9	0x3d91efaf	0.07125794
10	0x3e17cfb0	0.1482532
11	0xbd14289d	-0.036171544
12	0xbd0e9625	-0.034811158
13	0xbcf20dde	-0.029547628
14	0xbcd9b24f	-0.026574282
15	0xb4558000	-1.9883737e-07

conv2.weight f4 [32, 16, 7, 7]
0	0xbd601294	-0.054705217
1	0x3ccae1cc	0.024765871
2	0xbc040432	-0.008057641
3	0xba3bee81	-0.0007169024
4	0x3d593a0f	0.053033885
5	0xbc24dec2	-0.010062875
6	0xbbbad896	-0.0057020886
7	0x3d21db16	0.039515577
8	0xbcf5f4b5	-0.030023912
9	0x3d096785	0.03354599
10	0x3cfec174	0.031098105
11	0xbd068eed	-0.03285115
12	0x3bf5360c	0.0074832495
13	0xbdb8dfc1	-0.09027053
14	0xbd4f8e20	-0.05067265
15	0x3d2e33bd	0.04252981
16	0xbbcc0554	-0.006226221
17	0x3d017d14	0.031613424
18	0xbbeca3a6	-0.007221657
19	0x3d0d3303	0.034472477
20	0xbca62674	-0.020282008
21	0xbd0162ae	-0.03158825
22	0x3c1170ce	0.008876992
23	0xbc2447a7	-0.010026849
24	0xbd8d0ded	-0.06887422
25	0xbcc98759	-0.024600672
26	0xbd3f4f6e	-0.04670661
27	0xbbd69e0c	-0.0065496024
28	0xbd323bd0	-0.043514073
29	0xbb0ecf46	-0.0021791025
30	0x3c49932e	0.012303157
31	0xbd423764	-0.047416106
32	0x3c957859	0.018245863
33	0xbd5a47ea	-0.05329124
34	0x3dde0bfb	0.10842129
35	0xbd48867f	-0.04895639
36	0xbd06852e	-0.032841854
37	0xbd79fa66	-0.061029814
38	0x3d19b773	0.037528466
39	0x3c2b03f5	0.010437955
40	0xbd8654a2	-0.06559111
41	0xbdc10348	-0.09424454
42	0x3d36a55b	0.04459129
43	0xbccf0ff5	-0.025276164
44	0x3cbf9a54	0.02338902
45	0x3c3f40e7	0.011673189
46	0x3d1a01b5	0.037599284
47	0xbc84d4bc	-0.01621472
48	0xbc5a910c	-0.013340246
49	0x3c1ebb8c	0.009688269
50	0xbd43d8ae	-0.047814064
51	0xbca15402	-0.019693378
52	0x3cc79466	0.024362754
53	0xba42649a	-0.00074155035
54	0xbc03a5c2	-0.008035125
55	0xbb9398bf	-0.0045042927
56	0xbceedfa6	-0.029159378
57	0xbb8f6506	-0.0043760566
58	0xbb564bbb	-0.0032698947
59	0x3d6337d9	0.055473182
60	0x3c5dc44b	0.013535569
61	0xbc190999	-0.009340667
62	0x3d8b96b3	0.06815853
63	0x3db94570	0.09046447
64	0xbd23d03d	-0.039993513
65	0x3ce16b7b	0.027517071
66	0xbbb668bc	-0.0055666845
67	0x3d76123e	0.06007599
68	0xbce932bd	-0.028466577
69	0xbb9204a7	-0.004456121
70	0xbce2459a	-0.02762108
71	0x3cf473c5	0.02984036
72	0xbd92a26a	-0.07159884
73	0xbcacb4be	-0.021082278
74	0x3cb54c48	0.0221311
75	0xbd3da34f	-0.04629832
76	0xbdfa9d06	-0.12236981
77	0x3d86b41b	0.06577321
78	0x3a926af1	0.0011170787
79	0xbd97e3f6	-0.07416527
80	0x3b46e8a0	0.0030351058
81	0xbbd435b9	-0.006476131
82	0x3c920ea5	0.017829249
83	0x3d3c2a53	0.0459388
84	0xbd7874e8	-0.060658365
85	0xbb89c5f7	-0.0042045075
86	0xbd42e638	-0.047582835
87	0x3d50460e	0.05084806
88	0x3c3e4241	0.011612476
89	0x3a215354	0.00061540795
90	0x3cad7f64	0.021178909
91	0xbd722cb9	-0.059124682
92	0x3d3833fd	0.044971455
93	0xbb8135a3	-0.0039431616
94	0x3c01c80b	0.007921229
95	0xbb80f01c	-0.0039348733
96	0xbcc78308	-0.024354473
97	0x3d88df1b	0.06683179
98	0x3b607631	0.0034250135
99	0x3c34f659	0.011045062
100	0xbd494ab5	-0.04914351
101	0xbc7e660f	-0.015527262
102	0xbd47f035	-0.048813064
103	0x38c70896	9.490659e-05
104	0xbd96e756	-0.073683426
105	0xbdb63783	-0.08897307
106	0xbd650a1a	-0.055917837
107	0xbd3eba51	-0.046564404
108	0x3d16036c	0.036624357
109	0x3c9365fc	0.017992966
110	0x3cee378a	0.029079217
111	0xbc82d037	-0.015968425
112	0xbbb85ee8	-0.005626548
113	0xbd3c0176	-0.04589983
114	0x3d28774f	0.041129407
115	0x3d8ef959	0.06981153
116	0x3c8504e2	0.01623768
117	0xbd8aa641	-0.06769992
118	0x3c899203	0.016793257
119	0xbd14dd6f	-0.036343988
120	0xbd76e7b5	-0.060279567
121	0x3d14cf77	0.036330666
122	0xbbb009b0	-0.0053722486
123	0x3999ec5f	0.00029358544
124	0x3d0228e4	0.031777278
125	0xbb32ee7c	-0.0027302792
126	0x3d6f8001	0.058471683
127	0xbb82eda0	-0.0039956123
128	0xbb164855	-0.0022931297
129	0xbd316374	-0.043307737
130	0x3d7d1134	0.061783984
131	0x3bdad246	0.0066778986
132	0xbd6ddcfe	-0.058072083
133	0xbbdbbe84	-0.006706061
134	0x3ce04f1e	0.027381476
135	0x3ce37f71	0.02777073
136	0xbc2d9dff	-0.010596751
137	0xbd1c2b9e	-0.038127534
138	0xbd2bf711	-0.041983668
139	0xbbf87b7e	-0.007583081
140	0xbdce6a59	-0.10078878
141	0x3d1fba45	0.038996
142	0x3c20c7e2	0.009813281
143	0xbd0b1a48	-0.03396061
144	0xbd0bfc01	-0.034175877
145	0x3d85ae8b	0.06527432
146	0xbd9c0a5a	-0.07619162
147	0x3c30f108	0.010799654
148	0x3d85dded	0.065364696
149	0x3cc02634	0.023455717
150	0xbc12f1cf	-0.0089687845
151	0xbd04cbae	-0.032420807
152	0xbd1f2467	-0.038853075
153	0x3ab00095	0.0013427908
154	0xbb566536	-0.0032714135
155	0x3bff1605	0.0077846074
156	0xbc2fcd89	-0.010730156
157	0xbccaff29	-0.024779873
158	0xbd8684e8	-0.065683186
159	0x3d008449	0.031376157
160	0x3dcaf5bd	0.09910152
161	0x3ce04da2	0.027380768
162	0xbd673bbd	-0.056453455
163	0xbddfe5f6	-0.109325334
164	0xbd0be796	-0.034156404
165	0x3d6898bc	0.056786284
166	0x3d7b328b	0.0613275
167	0x3e08974d	0.13338967
168	0xbd53ce53	-0.051710438
169	0xbd59b468	-0.053150564
170	0x3ba9aa1f	0.0051777507
171	0xbd587a23	-0.052850854
172	0xbd90f377	-0.07077687
173	0x3d7b86d6	0.061407886
174	0x3da28445	0.07935385
175	0x3c41120d	0.011784089
176	0x3d085d90	0.033292353
177	0xbd0c750d	-0.034291316
178	0x3d6cdad2	0.05782587
179	0xbc7d51ce	-0.015461398
180	0xbd9c12de	-0.07620786
181	0xbcb70ac6	-0.022344004
182	0xbb907057	-0.004407923
183	0x3d45ae4b	0.04826192
184	0xbca92d3b	-0.02065145
185	0x3b0c4705	0.0021404636
186	0x3da78518	0.081796825
187	0x3cbe2b44	0.02321399
188	0xbc4b8403	-0.012421611
189	0xb8005f54	-3.060636e-05
190	0xbc319e36	-0.010840943
191	0xbd865b78	-0.06560415
192	0xbae2504f	-0.0017266365
193	0x3cf148c2	0.029453639
194	0x3be84526	0.0070883213
195	0xbc392310	-0.011299863
196	0xbd963a37	-0.07335322
197	0x3c792272	0.015205966
198	0x3cc2d854	0.023784794
199	0x3d55c7eb	0.05219261
200	0xbcdf0ed4	-0.02722875
201	0xbcc2102c	-0.023689352
202	0x3d2283d8	0.039676517
203	0xbd30e0bf	-0.043183085
204	0x3d197f9c	0.037475213
205	0xbd89b2e5	-0.067235745
206	0x3ce93d38	0.028471574
207	0x3d29a984	0.04142143
208	0xbcf78ad8	-0.030217573
209	0xbc917ff6	-0.017761212
210	0xbd04fa1f	-0.032465097
211	0xbca68a34	-0.020329572
212	0xbc948796	-0.018131059
213	0xbcbb9b18	-0.022901103
214	0xbc88f368	-0.016717628
215	0xbb8091a2	-0.003923611
216	0xbd36eacf	-0.044657525
217	0x3ddc7ea5	0.10766343
218	0xbc286bb2	-0.010279583
219	0x3ca62c50	0.020284802
220	0xbbaba970	-0.0052387044
221	0xbccb4f5f	-0.02481812
222	0x3b50ace5	0.0031841334
223	0xbdb948b7	-0.090470724
224	0xbd498fc5	-0.049209375
225	0x3c1c8baa	0.009554783
226	0x3cc4e7f4	0.024036385
227	0xbcc88785	-0.024478683
228	0x3d087128	0.03331104
229	0x3d7edc76	0.062221967
230	0xbd0a26d6	-0.033728443
231	0x3d216ef9	0.039412472
232	0x3c3449ae	0.011003895
233	0x3d13c5f0	0.03607744
234	0x3cd647d4	0.026157297
235	0xbbef7d85	-0.0073086643
236	0x3cbde3e0	0.023179948
237	0xbb3e6d61	-0.0029056894
238	0x3b949d6a	0.004535367
239	0x3da7287a	0.08162017
240	0x3ce4063f	0.02783501
241	0xbd398202	-0.04529
242	0x3d7420c8	0.059601575
243	0x3d4e75a8	0.050405174
244	0xbd7a70c0	-0.061142683
245	0x3d0a0ecb	0.033705514
246	0xbd1a5ca2	-0.037685998
247	0xbc04034f	-0.008057429
248	0xbd456515	-0.048192102
249	0xbd802123	-0.0625632
250	0xbcb3708d	-0.021904254
251	0xbdab41db	-0.0836217
252	0xbc45361e	-0.012036828
253	0xbd03fd49	-0.032223973
254	0x3cb41c10	0.021986037
255	0xbc86b8ad	-0.016445482

conv2.bias f4 [32]
0	0x3ba33c01	0.0049815183
1	0x3ca284d3	0.019838726
2	0xbbf9cd5a	-0.0076233568
3	0xbcbf8de2	-0.023383085
4	0xbd1a7bf0	-0.037715852
5	0x3c74cd32	0.0149415005
6	0xbc51a573	-0.012795794
7	0xbc8963c3	-0.016771203
8	0xbccc65cc	-0.024950884
9	0xbb61ab65	-0.0034434434
10	0xbcd86743	-0.026416427
11	0xbd07240d	-0.032993365
12	0xbb6d710e	-0.0036230716
13	0xbc878c59	-0.016546415
14	0xbcc799dc	-0.024365358
15	0x3ca1e2d7	0.019761486
16	0xbcb6819f	-0.022278605
17	0xbd322b65	-0.043498415
18	0xbcbb9d4c	-0.022902153
19	0xbc1bd214	-0.009510536
20	0xbc36b4ce	-0.011151506
21	0xbc1b477b	-0.0094774915
22	0xbcbbba50	-0.02291599
23	0x3c1c5d36	0.009543708
24	0x3d477b9b	0.048701864
25	0x3d442f1d	0.047896493
26	0xbca8bad5	-0.020596901
27	0xbc4c2e35	-0.0124621885
28	0xbd1f883b	-0.03894828
29	0xbd22c057	-0.03973421
30	0x3c47d772	0.012197362
31	0xbce7bd7e	-0.0282886

batch_norm1.weight f4 [16]
0	0x3f7b4f3e	0.9816779
1	0x3f852dea	1.0404637
2	0x3f75a6d5	0.9595769
3	0x3f725b81	0.94670874
4	0x3f71c188	0.9443593
5	0x3f7590a6	0.9592384
6	0x3f8478e9	1.0349399
7	0x3f809d4f	1.0048007
8	0x3f62d40a	0.88604796
9	0x3f81dadf	1.0144919
10	0x3f840081	1.0312654
11	0x3f86edb0	1.0541286
12	0x3f8d21e7	1.1025971
13	0x3f6ff72f	0.9373655
14	0x3f813b3d	1.0096203
15	0x3f55eef9	0.8356777

batch_norm1.bias f4 [16]
0	0xbe5f8951	-0.21829726
1	0xbdc959b8	-0.098315656
2	0xbe2c82a1	-0.16846706
3	0xbe7e4c1f	-0.24833725
4	0xbe073de0	-0.13207197
5	0xbe483f48	-0.1955539
6	0xbd53522f	-0.05159205
7	0xbe13bc5d	-0.14427324
8	0xbe8081ed	-0.25099126
9	0xbe951ff5	-0.29125944
10	0xbe33dcbd	-0.17564674
11	0xbca70ffc	-0.020393364
12	0xbd9ebe49	-0.07751138
13	0xbe87d351	-0.2652841
14	0xbe0e47e9	-0.13894619
15	0xbe7fa49f	-0.24965142

batch_norm1.running_mean f4 [16]
0	0x3d964c09	0.07338721
1	0x3dce5682	0.10075094
2	0xbda2af51	-0.07943595
3	0x3d5e990e	0.054345183
4	0xbc204cc0	-0.009783924
5	0xbd0d2b18	-0.034464926
6	0xbd60de3c	-0.05489944
7	0x3dd20ec4	0.102567226
8	0x3df2949a	0.1184475
9	0x3da1057b	0.078623734
10	0x3e19bbc5	0.15013035
11	0xbd12038e	-0.03564792
12	0xbd0adc2d	-0.033901382
13	0xbcbf9502	-0.023386482
14	0xbcb739a3	-0.02236635
15	0xbc398094	-0.011322159

batch_norm1.running_var f4 [16]
0	0x3cd8877a	0.026431788
1	0x3cafd89e	0.021465596
2	0x3d1a5ade	0.037684314
3	0x3d136b95	0.03599127
4	0x3d6339c3	0.055475008
5	0x3d1fd75a	0.039023735
6	0x3c6241bf	0.01380962
7	0x3cb58193	0.022156512
8	0x3cbde86a	0.023182113
9	0x3d0f6791	0.035010878
10	0x3cc4bcce	0.02401581
11	0x3ccddc7d	0.025129551
12	0x3c20c693	0.009812969
13	0x3c99c8d3	0.018772518
14	0x3d186b82	0.037211902
15	0x3db18d8e	0.086695775

batch_norm2.weight f4 [32]
0	0x3fb93b78	1.4471273
1	0x3fae7608	1.362977
2	0x3fa20204	1.2656865
3	0x3fbe7ac5	1.4881216
4	0x3fc78f6b	1.5590643
5	0x3fb5220d	1.4151016
6	0x3fb910ef	1.4458293
7	0x3f94d964	1.1628842
8	0x3f9fce6f	1.2484874
9	0x3fc0b3e8	1.5054903
10	0x3f9c0250	1.2188206
11	0x3fbf6387	1.4952248
12	0x3fac9fcb	1.3486265
13	0x3f9eba7b	1.2400659
14	0x3f9e9039	1.2387763
15	0x3fbfeb35	1.4993654
16	0x3fae165a	1.3600571
17	0x3fbb44d7	1.4630383
18	0x3fc4754b	1.5348295
19	0x3f9ec44c	1.2403655
20	0x3fbc1f6e	1.4697092
21	0x3fba7cb7	1.456931
22	0x3fbe6ea3	1.4877514
23	0x3faa063d	1.3283154
24	0x3fab7080	1.3393707
25	0x3faff090	1.3745289
26	0x3faf634e	1.370218
27	0x3fab4324	1.3379865
28	0x3fa5dcc0	1.2957993
29	0x3fbc350d	1.470369
30	0x3fae86d3	1.3634895
31	0x3fbcb930	1.4744015

batch_norm2.bias f4 [32]
0	0xbe257482	-0.16157725
1	0xbdc93ca4	-0.098260194
2	0xbd3c0dfe	-0.04591178
3	0xbda41b81	-0.080130585
4	0xbda0b596	-0.07847135
5	0xbd48b9fa	-0.049005486
6	0xbd8c7aea	-0.068593815
7	0xbe148e7c	-0.14507478
8	0xbda09f12	-0.0784284
9	0xbda2cacf	-0.07948839
10	0xbdb87bfb	-0.090080224
11	0xbd8b89a1	-0.0681336
12	0xbdd80073	-0.10546961
13	0xbda4e7ed	-0.08052049
14	0xbdc1afed	-0.09457383
15	0xbd4480ec	-0.047974512
16	0xbd878878	-0.06617826
17	0xbdbd0bea	-0.09230788
18	0xbdc0f8de	-0.09422468
19	0xbdc9fbe0	-0.098624945
20	0xbd9e479a	-0.07728501
21	0xbd2225bc	-0.039586768
22	0xbd8cf188	-0.06882006
23	0xbdaf9f08	-0.08575255
24	0xbdbe168e	-0.09281646
25	0xbdd4b2b1	-0.10385645
26	0xbd33a167	-0.043855097
27	0xbd58083b	-0.052742224
28	0xbdd5764e	-0.104229555
29	0xbdaeeee4	-0.085416585
30	0xbd96e52c	-0.0736793
31	0xbdc404a3	-0.09571197

batch_norm2.running_mean f4 [32]
0	0xbe723597	-0.23653255
1	0xbe6de083	-0.23230176
2	0xbe27859d	-0.16359563
3	0xbdfc8bca	-0.1233135
4	0xbe0ee642	-0.13955024
5	0xbe90fe69	-0.283191
6	0xbe87f242	-0.26552016
7	0x3f192bd2	0.5983249
8	0xbf48b7fa	-0.78405726
9	0x3ded0f5f	0.115751974
10	0xbec6fb2c	-0.38863504
11	0xbe9d09f3	-0.30671653
12	0xbe233989	-0.15939917
13	0xbe150d23	-0.14555793
14	0xbed13682	-0.408619
15	0xbd73d339	-0.05952761
16	0x3d71243b	0.058872443
17	0xbd6ac6ea	-0.057318605
18	0xbe2f4e65	-0.17119749
19	0x3e9c7f41	0.30565837
20	0xbe822e09	-0.25425747
21	0xbdec8dd7	-0.11550491
22	0xbea7205a	-0.3264187
23	0xbd5e694d	-0.05429964
24	0xbe3c3f32	-0.18383482
25	0xbe8bc7e1	-0.27300933
26	0x3dcd8c4b	0.100365244
27	0xbe246f6c	-0.16058129
28	0xbe82d217	-0.2555091
29	0xbda861e5	-0.08221797
30	0x3d19c167	0.03753796
31	0x3c4a1e78	0.012336366

batch_norm2.running_var f4 [32]
0	0x3ef84282	0.4848824
1	0x3f1d0c71	0.6134711
2	0x3f036c8c	0.51337504
3	0x3f0d1fc8	0.5512662
4	0x3f1752f2	0.5911094
5	0x3f1862d6	0.5952581
6	0x3f179b22	0.5922109
7	0x3f18c9f1	0.5968314
8	0x3f27faf5	0.65617305
9	0x3f10dee4	0.56590104
10	0x3f44e9ec	0.76919436
11	0x3f169fe3	0.5883772
12	0x3f06f6ff	0.52720636
13	0x3ef82e13	0.48472652
14	0x3f373725	0.7156852
15	0x3f0245e6	0.50887907
16	0x3ef688c4	0.4815122
17	0x3f16af8b	0.5886161
18	0x3f28d5c8	0.65951204
19	0x3f11acc8	0.5690427
20	0x3f19e78e	0.6011895
21	0x3f0c9715	0.5491803
22	0x3f0320cd	0.51221925
23	0x3f2dab85	0.67839843
24	0x3f0b2e23	0.54367274
25	0x3efd40fe	0.49463648
26	0x3efa4ce5	0.4888679
27	0x3f0e8e0b	0.5568549
28	0x3f0746bc	0.5284231
29	0x3f0e577c	0.5560224
30	0x3f04c9d1	0.5187045
31	0x3f0a3597	0.5398802

fc1.weight f4 [4, 800]
0	0xbd929210	-0.071567655
1	0x3da87ee4	0.082273275
2	0x3e00bff0	0.12573218
3	0x3a4aa0ad	0.0007729631
4	0xbda9d566	-0.08292656
5	0x3a883432	0.0010391532
6	0x3d5a02e6	0.05322542
7	0x3d07e4f6	0.03317734
8	0xbbfa6415	-0.0076413252
9	0x3dc0308c	0.093842596
10	0x3dd43dd8	0.10363358
11	0x3ca0bc4f	0.019621043
12	0xbd8039d4	-0.0626103
13	0xbd35c339	-0.044375632
14	0xbc728fbd	-0.014804778
15	0xbc468094	-0.012115616
16	0x3d74f08b	0.059799712
17	0x3c33c7a0	0.010972887
18	0xbd8b021f	-0.06787514
19	0xbde230b7	-0.11044448
20	0xbda83afc	-0.082143754
21	0x3d5bc8ed	0.053658415
22	0xbd4002dd	-0.04687773
23	0x3d2e8350	0.042605698
24	0x3d7319f9	0.05935094
25	0x3de5ef9d	0.11227343
26	0x3d6e7bfb	0.058223706
27	0x3d43020d	0.047609378
28	0x3da222c5	0.07916788
29	0x3dab23ee	0.083564624
30	0x3cca935c	0.02472847
31	0x3d8b0d4d	0.06789646
32	0x3d933169	0.071871586
33	0x3d864cba	0.06557603
34	0xbd0e2277	-0.034700837
35	0x3d7e2b63	0.062053096
36	0xbd748600	-0.059698105
37	0x3cc2c8b5	0.023777345
38	0x3d130c30	0.035900295
39	0xbde0f278	-0.10983747
40	0xbd04550b	-0.032307666
41	0xbdc0bc5e	-0.09410928
42	0xbd866526	-0.06562261
43	0x3d8b235b	0.06793853
44	0xbdb8f847	-0.0903173
45	0x3cf9e419	0.030504273
46	0x3c5c07b3	0.01342957
47	0xbdb188f1	-0.086686976
48	0xbdf3ee96	-0.11910741
49	0xbcb30f66	-0.021857928
50	0xbd84862e	-0.06470905
51	0x3d17c7b7	0.037055697
52	0xbbf36dd5	-0.0074288645
53	0xba12694e	-0.00055851496
54	0xbcc6ab50	-0.02425161
55	0x3d6fb761	0.058524493
56	0xbd58b7ca	-0.05290965
57	0x3c7ed9c1	0.015554846
58	0x3d355ca6	0.04427781
59	0x3cd0e2b5	0.025498727
60	0x3c2bca64	0.010485265
61	0xbc983d62	-0.018583957
62	0x3ccf67af	0.025317995
63	0xbb3d4e27	-0.0028885694
64	0x3ddeb40f	0.10874187
65	0x3d9816bb	0.074262105
66	0xbc4aee21	-0.012385876
67	0x3cc7b974	0.024380423
68	0x3ca8515d	0.02054661
69	0xbddd93b0	-0.10819185
70	0xbd80524f	-0.06265699
71	0xbd1fba8e	-0.03899627
72	0xbd9f5a94	-0.07780948
73	0x3c63c42c	0.0139017515
74	0xbcbeef90	-0.023307592
75	0xbd5f226e	-0.054476194
76	0xbd6e751f	-0.058217164
77	0x3d4c18a3	0.049828183
78	0x3cf118be	0.029430743
79	0x3db159f3	0.086597346
80	0x3d850ed2	0.064969674
81	0xbcda1b0d	-0.026624227
82	0x3da7c916	0.08192651
83	0xbd11ef05	-0.035628337
84	0x3db116f6	0.086469576
85	0xbd850594	-0.064952046
86	0xbd14002d	-0.03613298
87	0x3d86c9b0	0.065814376
88	0x3d08073c	0.033210024
89	0x3d8b6d69	0.06807978
90	0x3dc26859	0.09492559
91	0x3e1b1d00	0.15147781
92	0xbe14b03a	-0.1452035
93	0x3ca15909	0.019695776
94	0xbda12734	-0.078688055
95	0x3c18b039	0.0093193585
96	0xbdbc8532	-0.092050925
97	0x3c9a3bf7	0.018827422
98	0x3c554273	0.013016331
99	0x3d5cc006	0.053894065
100	0x3cb145cb	0.021639725
101	0xbd597e44	-0.053098932
102	0x3d783fff	0.060607906
103	0x3d7b7c2d	0.06139772
104	0xbd94f042	-0.07272388
105	0x3dc8b5de	0.098003134
106	0xbd3b9bbb	-0.045802813
107	0xbc935314	-0.01798395
108	0xbc999166	-0.01874609
109	0xbcd50ae6	-0.026006173
110	0xbd4f49f8	-0.05060765
111	0x3d14cef5	0.036330182
112	0xbd7c7d1a	-0.061642744
113	0xbca8d42b	-0.020608982
114	0xbd8521ad	-0.06500564
115	0xbc713bfc	-0.014723774
116	0x3d180832	0.03711719
117	0x3d926c00	0.071495056
118	0x3d8eeffe	0.069793686
119	0xbdd9cf51	-0.106352456
120	0x3bbd2f46	0.0057734577
121	0x3d4838e0	0.048882365
122	0xbda8d32f	-0.08243405
123	0xbdd3e3e8	-0.10346204
124	0x3d5f6e1a	0.05454836
125	0x3c5c42a4	0.013443623
126	0xbc79689a	-0.015222693
127	0x3c2da488	0.010598309
128	0xbc81ec9b	-0.015859893
129	0x3dd73cfa	0.10509677
130	0xbd55a652	-0.05216057
131	0x3d44d9ba	0.048059203
132	0x3ce07024	0.027397223
133	0xbd617485	-0.055042762
134	0xbda95590	-0.08268273
135	0xbe3d16ba	-0.18465701
136	0x3d166659	0.0367187
137	0x3ca50392	0.020143304
138	0x3cd7384c	0.026271962
139	0xbcabe21a	-0.020981837
140	0x3d0f5248	0.03499058
141	0x3d949794	0.07255474
142	0xbae3ea74	-0.0017388598
143	0x3d5c8f14	0.053847387
144	0x3c932579	0.017962204
145	0x3d2dd8a1	0.04244292
146	0xbd160a8a	-0.036631145
147	0x3cd1be55	0.025603453
148	0xbc728edd	-0.014804569
149	0x3d988b29	0.07448418
150	0x3b9c910a	0.004778032
151	0xbb7e9a7c	-0.0038849404
152	0xbde1d22b	-0.110264145
153	0x3d18da26	0.037317418
154	0x3bbde857	0.0057955193
155	0xbcacd5ec	-0.0210981
156	0xbcc9f818	-0.024654433
157	0xbdc8007d	-0.09765718
158	0xbda0246d	-0.07819448
159	0xbe4f0273	-0.20215778
160	0x3c40ce43	0.011767927
161	0x3da86069	0.08221514
162	0x3c32693a	0.010889346
163	0x3db834d5	0.08994452
164	0x3d4a7b5b	0.049434047
165	0xbd00aa57	-0.03141245
166	0xbc2fea1b	-0.010736967
167	0x3e0dadb2	0.13835791
168	0xbc1ea57d	-0.00968301
169	0x3cd1758c	0.025568746
170	0xbb6fe7eb	-0.003660674
171	0x3d3df153	0.046372723
172	0xbd06ed67	-0.03294125
173	0x3d8e7c90	0.06957352
174	0xb9dba1af	-0.000418914
175	0x3ce8fc9f	0.028440772
176	0xbd405944	-0.04696013
177	0x3c9552ae	0.018227901
178	0x3d397675	0.045278985
179	0xbd78ee77	-0.060774293
180	0xbd7fa8db	-0.062416892
181	0x3ca76c4b	0.02043738
182	0x3c98cfcf	0.018653778
183	0xbce998bc	-0.028515212
184	0x3bd7c71b	0.0065850145
185	0x3bf643da	0.0075154128
186	0x3d4c9a51	0.049951855
187	0xbcc6e120	-0.02427727
188	0x3de0680a	0.10957344
189	0xbbc3a358	-0.0059704
190	0x3d72252f	0.059117492
191	0xbdd7822c	-0.10522875
192	0x3d46b06f	0.048508104
193	0x3ca3cf48	0.0199963
194	0x3bc646fd	0.006050943
195	0x3d26a1dd	0.04068171
196	0xbc93a99f	-0.018025218
197	0x3d62124f	0.05519324
198	0x3ba35472	0.004984432
199	0x3d39328b	0.045214217
200	0x3d83e5d8	0.064403236
201	0x3d0c805b	0.034302097
202	0x3c858ad6	0.016301554
203	0xbd4a05f9	-0.049322102
204	0xbdccae93	-0.09994235
205	0xbd322026	-0.04348769
206	0xbd871afd	-0.065969445
207	0x3c526a4c	0.012842726
208	0xbcb0efb2	-0.02159867
209	0xbcde8947	-0.027165068
210	0x3d299ec1	0.041411165
211	0xbab0bc6d	-0.001348389
212	0x3cc6693d	0.024220103
213	0x3d0fd753	0.03511746
214	0x3bd3bdd2	0.0064618373
215	0x3d2839d8	0.04107079
216	0xbd1f7598	-0.038930506
217	0xbceb7a41	-0.028744819
218	0x3d08c469	0.033390436
219	0xbdd3ed6f	-0.10348021
220	0xbdc1564a	-0.094402865
221	0xbb63313f	-0.0034666804
222	0x3d49b21f	0.049242135
223	0x3d65055d	0.055913318
224	0xbd615418	-0.05501184
225	0x3d3f9fe2	0.046783336
226	0x3d206d68	0.039166838
227	0xbc89175d	-0.016734773
228	0x3c690928	0.014223374
229	0x3d5784bf	0.05261683
230	0x3d368816	0.044563375
231	0xb929bcac	-0.00016187382
232	0xbc922649	-0.017840521
233	0x3dc1dc9e	0.094659075
234	0xbde4a24d	-0.11163769
235	0xbcd3f93d	-0.025875682
236	0x3d160030	0.036621273
237	0x3ca1595c	0.01969593
238	0xbd293919	-0.04131422
239	0xbd5cd5b7	-0.05391475
240	0x3dc8e60f	0.09809505
241	0x3d609458	0.05482897
242	0xbd4d3d40	-0.05010724
243	0xbd8e21c1	-0.06940032
244	0x3d1d0da7	0.038343098
245	0xbd9b7c9e	-0.07592128
246	0xbc757729	-0.014982023
247	0xbc90b72b	-0.017665466
248	0x3d9f106e	0.077668056
249	0xbd27ab9a	-0.040935136
250	0xbde5c410	-0.112190366
251	0x3cdc5d3c	0.026899926
252	0x3c162928	0.009165086
253	0x3d4d5a79	0.05013511
254	0xbb80d7b1	-0.0039319624
255	0xbcb50a9b	-0.022099784

fc1.bias f4 [4]
0	0x3af8e7a6	0.0018989935
1	0xbc52cee2	-0.0128667075
2	0x3cb8aec7	0.022544278
3	0x3cf4b8da	0.0298733
